checkpoint.pt (torch, 24171 bytes, 11 tensors)

rnn.weight_ih_l0 f4 [48, 24]
000000 15 b6 3f 3d f9 7a ac 3d 4c 84 1e 3e 47 12 d2 3d
       0.046804506 0.08421893 0.15480155 0.102573924
000010 ec 83 08 be ef 6c e4 3d 0a 4b 99 bd 6c 87 3f 3d
       -0.13331574 0.1115359 -0.07485016 0.046760008
000020 6f 66 90 3d a5 e9 ba bc 2b fe 58 3d a0 1b 81 bc
       0.07050788 -0.022816489 0.05297677 -0.015760243
000030 b2 71 04 3c e4 bb 7d 3d 10 49 79 3d c0 5b 2d bd
       0.008083748 0.061946765 0.060860693 -0.042323828
000040 f8 42 1a bc 60 f2 e5 bd 59 11 8f bc dd bc b4 bd
       -0.009415381 -0.1122787 -0.017464327 -0.08825085
000050 58 3f e4 bd 32 5e 08 be 00 d1 f5 bd bc 78 a0 bd
       -0.11144894 -0.13317183 -0.12002754 -0.07835528
000060 e2 7a a3 3d 69 f1 5a bd 9b 57 de 3d fa 3c 00 3d
       0.079824224 -0.053452883 0.10856553 0.03130815
000070 7b ef 33 3d 15 ba ed 3c 96 1f e0 bc 14 2f db 3c
       0.04392956 0.029019395 -0.027358811 0.026755847
000080 0d 36 c6 3d df 1e 5f 3a 46 f7 b6 3d dd 3e 7c bd
       0.09678278 0.0008511375 0.089338824 -0.06158339
000090 6e 8c 0b 3e 85 04 8d bc f3 e9 49 3c 68 a9 0f 3e
       0.13627788 -0.01721407 0.012323844 0.14029467
0000a0 c8 40 9d bd 15 63 60 3d 9a 49 ed 3d 72 d4 08 3e
       -0.07678372 0.054781992 0.11586304 0.13362291
0000b0 e8 1d d4 bd 8f b6 24 3e d3 b9 8b bc bd 79 4e 3e
       -0.10357267 0.16085266 -0.017056381 0.20163627
0000c0 ee f8 d7 3d e7 86 a6 bd 62 63 1a 3e b4 02 df bd
       0.105455264 -0.08131199 0.15076974 -0.108891875
0000d0 c0 cd 95 bc 36 d6 b8 3d 96 d8 7e bd 66 89 d4 bb
       -0.018286586 0.090252325 -0.06221827 -0.0064861057
0000e0 e4 66 05 be 11 d7 90 bc 56 3f 86 bc 30 c2 b0 3d
       -0.13027531 -0.017680677 -0.016387623 0.08630788
0000f0 7d ae 43 3d ea 40 ed bd 7a 97 01 be c8 fd 3b 3e
       0.047773827 -0.11584647 -0.1265544 0.18358529
000100 60 a6 3f 3e 42 5a 21 3e c7 dc 29 3e e8 aa 5c 3c
       0.18715811 0.15757087 0.16588126 0.013468482
000110 c6 cc 11 3e 92 9c 22 3b 38 96 01 3e 80 c0 21 3e
       0.14238271 0.0024812561 0.1265496 0.15796089
000120 01 90 f3 bd 98 e3 69 bd dc 9b df bd c0 13 02 3e
       -0.11892701 -0.057101816 -0.109184 0.12702847
000130 3d c8 cd bd 42 58 60 bd f4 20 24 be 0c 3d 58 3d
       -0.10047958 -0.05477167 -0.16028196 0.052792594
000140 eb cf be bd ff 39 04 3d 40 4e e7 bc 11 fe e9 bd
       -0.09317001 0.032281872 -0.028235555 -0.114254124
000150 c8 e5 ae bd 16 75 71 3c 37 ee b3 bd 93 fd 3c 3d
       -0.08539921 0.014737388 -0.0878567 0.046140265
000160 13 0d 16 3e 5c 84 0e 3e 72 5f 0b 3e 41 1d 97 3d
       0.14653425 0.13917679 0.13610628 0.073786266
000170 72 b7 41 bd 7e 03 ec bc e2 6f 98 3c bb f2 27 3e
       -0.047294088 -0.028810259 0.018608037 0.16401188
000180 e4 57 54 bd 31 60 d3 3d 9f 13 b7 bd 23 4a a5 bd
       -0.05184163 0.103210814 -0.08939289 -0.08070781
000190 99 fa a1 3c fc a2 81 bd 2f 81 24 3d cb 22 12 be
       0.019772815 -0.06329915 0.04016226 -0.14271085
0001a0 92 46 ac 3d 3d 81 e3 bd 91 bb 0b 3e 87 7b d3 bd
       0.08411898 -0.111086346 0.1364577 -0.10326295
0001b0 a0 f9 09 3e cc cf 05 bd d4 59 2b 3d da 15 10 3e
       0.1347413 -0.032668874 0.041833714 0.14070836
0001c0 12 e1 1b 3e 45 bf aa bd f7 6e f8 3d 45 fc 08 3e
       0.15222576 -0.08337263 0.1213054 0.13377483
0001d0 79 6a 38 bd f6 fa 91 bd b6 5a e1 3d 6e 2b 6c 3e
       -0.045023415 -0.07127945 0.1100363 0.23063442
0001e0 f6 67 57 3d 67 7e 85 bc da 3b f5 3d ee 12 fa 3d
       0.05258938 -0.016295625 0.119743064 0.12210642
0001f0 70 c1 06 3e 9b fa 13 3e c1 50 cc 3d d4 74 05 be
       0.13159728 0.14451067 0.0997634 -0.13032848
000200 ac 12 9d bc 29 56 cb 3d d6 69 35 3e a4 3b 86 3d
       -0.019173943 0.09928543 0.17716154 0.06554344
000210 46 99 a8 3b f5 8a 83 3d ed 66 b3 3d 0c e4 97 3d
       0.0051452247 0.06422988 0.08759866 0.07416543
000220 20 fc 35 3e be cf 2d 3e b3 71 0f 3e bc 4b 1b 3e
       0.1777196 0.16973779 0.14008217 0.15165609
000230 c7 85 5a bd cf 3c 8c 3c 6f cb ef 3d d2 eb ef 3c
       -0.053350236 0.01711884 0.11708724 0.029287253
000240 8e 51 d6 3d 6e 01 55 bd 81 ac dc 3d 81 d1 74 bd
       0.10464774 -0.052003317 0.1077509 -0.05977011
000250 e6 6a f7 bd b7 e5 03 bd a3 cc b0 bd 98 0d a4 3d
       -0.12080936 -0.032201495 -0.08632781 0.08010405
000260 94 c8 c3 3d 51 48 e7 bd 36 9d 39 bc 2f 46 ca 3d
       0.095597416 -0.1129309 -0.011328986 0.09876668
000270 4a e1 f7 bd d0 98 0c bd 96 5f 18 be e2 4f 81 3b
       -0.12103517 -0.03432542 -0.14880213 0.0039462904
000280 98 ac 12 3e 66 89 d7 3d 04 a3 08 bd 30 6e 10 be
       0.14323652 0.105242535 -0.03335859 -0.14104533
000290 db 71 af bd a4 87 9b bd 27 28 97 bd 95 a9 25 be
       -0.08566638 -0.07594231 -0.07380705 -0.16177972
0002a0 dc 0b a4 3d e7 33 8e bd 27 da 5c bd 49 77 60 bd
       0.080100745 -0.06943493 -0.053918984 -0.05480126
0002b0 ff 1e df bd 22 b5 f8 3d de 4f a4 3d 6d 7b fc 3d
       -0.10894584 0.12143923 0.08023046 0.12328229
0002c0 03 f7 77 3d e5 12 57 3d 61 c2 db 3c 1f 1b cb 3d
       0.060538303 0.052508254 0.026826086 0.09917282
0002d0 1d 75 5c 3d d7 11 f8 3d 52 18 03 be 28 ef 66 bd
       0.053822625 0.12112778 -0.12802246 -0.05638042
0002e0 f7 f2 c0 bc af c5 e4 bd e3 3c 53 be f6 a1 16 be
       -0.023553355 -0.11170518 -0.20628695 -0.1471022
0002f0 92 fb f8 bd ac ed 85 bd 7c d9 37 be cf 0a b2 3c
       -0.12157358 -0.06539473 -0.17954057 0.02173367
000300 26 40 47 3c 39 aa d7 bd ff a9 ce 3d 96 9b d0 bc
       0.01216129 -0.10530514 0.10091018 -0.025464814
000310 ab b3 14 3d 41 37 5c bd 0c 28 e3 bd df 5c ee 3d
       0.036304157 -0.05376363 -0.11091623 0.116388075
000320 6a bb 16 3d 1e ed c6 bd ed 6a 4d 3c 16 07 01 be
       0.036799826 -0.09713195 0.0125377 -0.1260036
000330 20 e3 06 3e 0a 8b fb 3c 79 4f 11 3d 86 12 a6 bd
       0.13172579 0.030705947 0.03547618 -0.08109002
000340 9b 6e e0 3d ad 32 87 3c bb 7c 33 3e 34 eb ac bc
       0.10958596 0.016503656 0.1752805 -0.021108247
000350 93 74 30 3e 37 29 4d bc d1 22 31 3e 3b 86 7b 3b
       0.1723197 -0.012522033 0.17298438 0.0038379568
000360 8a 91 a7 bd c0 fb af 3d bb 10 e5 3c 56 88 c1 3d
       -0.08182056 0.085929394 0.02796208 0.09449832
000370 b8 2e f4 bd 47 c1 02 be e5 51 4f bc 78 fa fe 3c
       -0.119229734 -0.12769042 -0.0126538025 0.031125292
000380 25 cb 9c 3d 31 c8 8a 3c d9 7b 03 3e 62 d1 0f be
       0.07655934 0.016941162 0.12840213 -0.14044717
000390 a8 c8 ac 3c 61 92 0f be 6f 23 a0 3d 4c 13 b8 bd
       0.021091774 -0.14020683 0.078192584 -0.089880556
0003a0 18 72 33 3e 65 7d 81 3d 28 c4 1e bd 77 12 fa bb
       0.17523992 0.06322745 -0.038761288 -0.0076315957
0003b0 95 d4 c5 3c f3 27 7c 3d 06 ea ff bd 9e 7a fa 3d
       0.024149219 0.061561536 -0.12495808 0.122304186
0003c0 e0 89 8e 3d b8 08 01 bd f9 14 5b bc 22 ad cc bc
       0.06959891 -0.031502455 -0.0133716995 -0.0249849
0003d0 bf 5c 65 bd c4 a2 04 3d 9d a5 9e 3d 6f 99 65 3d
       -0.055996653 0.032381788 0.07746432 0.05605453
0003e0 cd 46 ef bd 55 52 aa bd 3b 1e 30 bc ed 64 9c bc
       -0.11683426 -0.08316485 -0.010749395 -0.019091094
0003f0 6f aa 74 3d fe b2 80 3d 96 17 1a 3e c4 1f a1 bd
       0.05973285 0.0628414 0.1504806 -0.07867387

rnn.weight_hh_l0 f4 [48, 48]
000000 d8 c0 ad 3c d0 fd 72 3c 60 63 9b 3b e8 e9 aa bc
       0.02121012 0.014831021 0.004742071 -0.020863488
000010 c0 ee 8e 3c 60 fe 78 bc 90 37 35 bc 2d 5b 97 bd
       0.01744783 -0.0151973665 -0.01106061 -0.07390437
000020 f4 48 e6 3d 58 b2 fc 3d 3c ce f9 bc 8c f1 49 3d
       0.112443835 0.12338704 -0.030493848 0.049302623
000030 c4 63 0d 3e d7 fc 9f bd 3e d1 02 be 2c d9 0d be
       0.13807589 -0.07811897 -0.12775132 -0.13852376
000040 ef 98 12 be 3c 84 e2 3d 60 b3 68 3d 50 2e e2 bd
       -0.14316152 0.11060378 0.05681169 -0.1104399
000050 6e 1d 1c bd c4 17 ed 3d d0 ae c5 bc f0 64 19 3c
       -0.038114004 0.115767986 -0.024131209 0.009362444
000060 f2 21 6f bd 7c 48 03 3d a0 42 83 bc 7c 57 89 3d
       -0.058381982 0.03205155 -0.01602298 0.067061394
000070 b6 74 59 bd f4 9f 4f 3d 4e 62 bd 3d 64 7a 35 3d
       -0.05308982 0.050689653 0.09247266 0.044306174
000080 86 01 a2 3d 2a 62 fa bd 18 d8 d1 bc 6c a3 0f bd
       0.07910447 -0.122257546 -0.025615737 -0.03506796
000090 8a 66 a3 3d 62 96 02 bd 70 4c 01 bc a8 6a ba bd
       0.07978542 -0.031881697 -0.007891759 -0.09102374
0000a0 20 25 0d bc 84 a6 82 3d 60 b3 92 3c 00 d3 dd 3d
       -0.008614808 0.063794166 0.017907798 0.10831261
0000b0 b2 6f a0 bd 68 16 2d bd 08 71 eb 3d 68 f9 8f bc
       -0.07833804 -0.042257696 0.114961684 -0.01757498
0000c0 46 d4 b2 3d e8 00 bb bc 4c 5f 9f bd 3f 63 86 bd
       0.08731894 -0.02282758 -0.07781848 -0.065618984
0000d0 c0 2b de bb f4 c5 a5 3d f2 4d b6 bd 28 08 e8 bd
       -0.0067801178 0.08094397 -0.08901586 -0.11329681
0000e0 70 04 18 bd 04 13 ac 3d 44 a1 e7 3d aa fa ba bd
       -0.037113607 0.084020644 0.11310056 -0.091298416
0000f0 de ae 4f bd 7c 38 8e bd 0a 8e 0a be 54 62 b9 bd
       -0.050703876 -0.06944367 -0.13530746 -0.09051958
000100 1c 97 01 3e 64 e7 1a 3d 84 96 fd 3d c2 20 75 bd
       0.126553 0.037818328 0.12382224 -0.059845693
000110 40 95 66 3d ec e3 24 3d 68 43 49 3d 98 26 02 be
       0.05629468 0.040256426 0.04913655 -0.12710035
000120 2e da 0e bd c0 34 77 3c d0 71 34 bd d8 c6 16 3d
       -0.03487604 0.01508826 -0.044053853 0.036810726
000130 fc 37 00 be ea 10 fd bd fc 11 ad 3d 80 5c 4e 3c
       -0.12521356 -0.12356742 0.08450696 0.012595296
000140 a0 75 a8 3d c0 d2 1c 3b b4 75 87 bd 40 3f 5e bd
       0.0822556 0.0023929328 -0.06614247 -0.05425954
000150 b2 e5 94 3d 48 a4 24 3d 4c 41 09 3d 44 79 d1 bc
       0.072703734 0.040195733 0.033509538 -0.02557052
000160 f8 27 ec 3c c2 7b b7 bd b2 13 9e 3d 50 de 77 3d
       0.028827652 -0.08959152 0.077186 0.060514748
000170 9a 39 a4 3d 40 08 0b 3c 1d bb 08 be a8 3d c5 3c
       0.08018799 0.008485854 -0.13352628 0.024077252
000180 60 3c b6 bb 6a 5f 87 bd f0 a0 f0 3c b0 0d f8 3d
       -0.0055613965 -0.06609996 0.029373616 0.12111986
000190 22 de b8 bd aa a8 c1 3d f0 9e cf bd a0 5a 52 3c
       -0.090267435 0.09455998 -0.10137737 0.0128389895
0001a0 ce 14 96 3d b0 7d 7c 3c df ad 87 bd d8 84 0d 3e
       0.07328187 0.015410826 -0.0662496 0.13820207
0001b0 80 19 59 bb fc e8 f0 3d 94 dd 12 3e 40 79 cf 3b
       -0.0033126771 0.11763188 0.14342338 0.006331593
0001c0 6c 8f 05 3e 7a 96 53 bd 10 29 60 3c 5e 03 e6 bd
       0.13042992 -0.051657178 0.013681665 -0.11231111
0001d0 18 46 a8 3d 15 dc f5 bd 28 79 f9 3c b0 e4 48 3c
       0.08216494 -0.12004868 0.03045328 0.012261555
0001e0 ca d9 69 bd c0 39 34 3b 96 c6 40 bd d0 9a c0 3d
       -0.057092465 0.0027500242 -0.047064386 0.09404528
0001f0 00 32 9f bb e8 92 19 3d 8b 34 e8 bd c2 ee 12 3e
       -0.0048582554 0.037493616 -0.11338147 0.14348891
000200 f0 43 a0 3d bc 7c be 3d b5 1d e4 bd 96 28 ac 3d
       0.07825458 0.09301135 -0.11138479 0.08406179
000210 8c 34 7f 3d aa 2e 40 bd 00 b5 b0 bd 80 3c 72 bc
       0.062305972 -0.046919502 -0.08628273 -0.014784932
000220 e0 e6 27 3c 90 d8 6b 3d a0 1f 0c bc 07 6c 9a bd
       0.010247916 0.057579577 -0.008552462 -0.07540136
000230 d8 ee c6 3c a8 b7 51 bd c0 86 30 3c a0 b5 01 3c
       0.024283811 -0.05120054 0.010774314 0.007916838
000240 8c ad 15 bd cc 4a ee bc 78 c2 82 bd 38 b0 4b 3d
       -0.03654246 -0.0290884 -0.06384748 0.049728602
000250 b0 27 3f bc a0 e1 5a bc 50 43 00 be e8 73 c0 3c
       -0.011667177 -0.013359457 -0.12525678 0.023492768
000260 e4 32 0c bd 38 a9 dd 3d 68 54 f4 3d 00 76 b7 39
       -0.03422822 0.108232915 0.11930162 0.00034992397
000270 91 38 13 be 1a ed c7 bd c6 23 b8 bd 84 7a bb bc
       -0.14377047 -0.097620204 -0.08991198 -0.022885568
000280 96 64 02 3e 96 30 12 3e 5a 5b 6e bd 18 60 5b 3d
       0.12733683 0.14276347 -0.05819259 0.05355844
000290 ec e7 05 3d 90 fa bf bd bb da a1 bd 48 b4 12 3e
       0.03269188 -0.09373963 -0.07903048 0.14326584
0002a0 40 f8 32 3b 64 c3 60 3d 9c fe 33 3d 2a 1c 18 bd
       0.0027308613 0.05487384 0.043943986 -0.037136234
0002b0 d0 ab bb 3d 10 fe 2e 3c 00 94 f9 bb c8 2c b5 3d
       0.0916363 0.01068069 -0.00761652 0.08846432
0002c0 b2 b5 0d bd 59 b5 9d bd e8 7e d3 3c 97 09 b2 bd
       -0.034597106 -0.07700605 0.02581735 -0.08693235
0002d0 12 fd 43 bd 60 37 d4 bb ae f6 10 be 79 53 f0 bd
       -0.04784877 -0.006476328 -0.14156601 -0.11734671
0002e0 a2 69 c8 bd 71 f7 05 be 00 8b 87 ba d4 9f 43 3d
       -0.09785773 -0.13082673 -0.0010341108 0.047759846
0002f0 10 1c ad 3d b4 88 7c 3d 20 1b af 3d 54 c9 d8 3d
       0.08452618 0.061653808 0.085500956 0.10585275
000300 80 7e ac bb 28 1b 20 bd b0 91 81 3c f0 a7 67 3d
       -0.0052641034 -0.0390884 0.01581654 0.056556642
000310 2c ca 20 3d 80 81 d1 3c f0 3a 74 3c 24 6d 1c bd
       0.039255306 0.025574446 0.01490663 -0.038190022
000320 00 be f0 3d 40 32 3b 3c d4 a3 8f 3d 04 de f0 bc
       0.117549896 0.011425555 0.070136696 -0.02940274
000330 50 c8 c7 3d aa bd 8c 3d a3 a0 88 bd dc a5 0a be
       0.097550035 0.06872113 -0.06671264 -0.13539833
000340 f3 e5 12 be 66 fe 07 be d0 65 3d 3c 08 6c eb 3d
       -0.14345531 -0.13280639 0.0115599185 0.11495215
000350 a8 f1 ee bd f4 5e 0c be fa 95 04 be 9a 00 aa bd
       -0.11667186 -0.13708097 -0.12947837 -0.08300896
000360 40 a1 79 bb 50 cc 71 3c ec f5 f4 3d 28 96 4e 3d
       -0.0038090497 0.014758185 0.119609684 0.05043617
000370 5c 41 6c 3d a8 f5 3e bd 58 ff ec 3d 06 c9 d7 bd
       0.05767952 -0.046620995 0.115721405 -0.10536389
000380 e0 cd 8e 3d e2 38 84 3d 0e f3 87 3d 16 ad a6 3d
       0.06972861 0.06456162 0.06638156 0.08138482
000390 e8 8c 5f 3d c0 64 22 bc 68 77 ab 3c 72 b4 ab bd
       0.054577738 -0.009911716 0.02093096 -0.083840266
0003a0 88 e8 bb 3d ba ee 8c bd 2e 75 03 be e4 f4 ad bd
       0.09175211 -0.06881471 -0.12837669 -0.08493975
0003b0 60 32 15 bd 70 23 30 3d 80 19 0f 3e e2 b7 d7 3d
       -0.036424994 0.043002546 0.13974571 0.1053312
0003c0 90 6a bc 3d 98 15 88 3d 92 84 0d be 80 11 75 bc
       0.09200013 0.06644744 -0.13820103 -0.014957786
0003d0 c0 73 ce 3d 13 d1 da bd 46 d5 0e 3e bf d9 aa bd
       0.10080671 -0.10684409 0.13948545 -0.08342313
0003e0 20 3e e3 3b d8 91 f5 3d 70 90 cf 3c 20 44 9e bc
       0.006934896 0.11990708 0.025337428 -0.019319594
0003f0 40 dd b5 3c 20 5b d8 3b 9c 5f 40 3d 28 42 f0 3c
       0.022200227 0.00660266 0.04696618 0.02932842

rnn.bias_ih_l0 f4 [48]
000000 45 3b ca 3d 44 6b 14 3e 3c 00 83 3c 2a 6b 36 3e
       0.09874586 0.14494044 0.015991323 0.17814317
000010 79 58 d3 3d a6 87 c6 3d 00 06 9d bd 6f f7 a8 3b
       0.10319609 0.09693842 -0.0766716 0.0051564495
000020 56 ab 11 bd 81 c9 88 bd 74 5e e7 3d 61 45 00 bc
       -0.03556379 -0.06679059 0.112973124 -0.007829041
000030 ac 61 01 3e ae ea e3 3d c0 eb 06 bd f5 0c a3 3d
       0.12634915 0.11128746 -0.032939672 0.07961456
000040 46 a9 ac 3c 23 8b 04 be e1 cc 81 3d fb e1 8c bc
       0.02107681 -0.12943701 0.06337906 -0.0171976
000050 ee d9 a9 bc 0d 13 19 bd 73 1e 14 3d 7f b5 c7 3d
       -0.0207338 -0.037371684 0.03616185 0.097514145
000060 b1 ac 14 3d 69 10 1a 3e 74 44 4a 3d 35 f7 f6 bc
       0.036297504 0.15045322 0.04938169 -0.030147174
000070 30 09 f5 3d 7e 73 2d 3e 8e a8 65 bd 29 a6 35 bd
       0.11964643 0.16938588 -0.05606895 -0.044347916
000080 1b df b6 3d 4b 0e 78 3a 67 4d a3 bd a8 4e 04 3e
       0.08929273 0.0009462579 -0.07973748 0.1292063
000090 ee 0d 99 bc b2 34 bd 3d 13 ef b9 3d 5b d8 8b bd
       -0.0186834 0.092385665 0.09078803 -0.06828376
0000a0 3f 4e 34 3e 1b 3c 69 bd 8f a4 33 3e 4f f3 86 3c
       0.17607974 -0.056942087 0.17543243 0.01647344
0000b0 0e c3 61 3b 23 a3 13 bd 52 3a 36 3d 3f ef 5e 3e
       0.0034448537 -0.03604425 0.044489212 0.21770953

rnn.bias_hh_l0 f4 [48]
000000 82 02 ac 3d b4 03 39 bd 20 00 1d bc 7c 73 1b 3d
       0.08398916 -0.045169547 -0.009582549 0.03795193
000010 b9 9d c5 bd df 58 5a 3d 80 a9 38 bd 73 fe c3 3d
       -0.09649224 0.05330741 -0.045083523 0.09570017
000020 23 36 96 3d 21 75 d1 bd 88 7b fb 3b 80 38 e4 3d
       0.073345445 -0.10227419 0.007674638 0.11143589
000030 d0 e5 0f 3c d6 58 3d 3e 4c 6c 2f 3d 6b 01 da 3d
       0.008782819 0.1849092 0.04282789 0.10644802
000040 7e 9a 49 bd eb 10 0d be aa e0 e6 3d a4 60 23 3d
       -0.0492196 -0.13775985 0.1127332 0.039887086
000050 4e 23 9e bd 5f de 92 bc d8 5d b3 3d 42 18 3d 3e
       -0.077215776 -0.0179283 0.08758134 0.18466285
000060 ca cd 1e 3e d3 df 82 3d 0b 72 a9 3d ec e6 7a bd
       0.1550819 0.06390347 0.08273705 -0.06125538
000070 38 a1 79 3c f5 91 a5 3d 16 18 ae bc 83 d0 7b bd
       0.015236191 0.0808448 -0.02125172 -0.06147815
000080 0d a3 80 bc f1 51 88 3c 64 0a 28 bd 83 a0 8f 3d
       -0.015702749 0.016640635 -0.041025534 0.07013037
000090 ec 62 2d 3d 3a 1e ec 3d 76 75 88 3a 10 d8 43 3e
       0.042330667 0.11529203 0.0010410983 0.1912539
0000a0 e0 13 72 3c 97 39 00 3e 3f 56 65 3d d3 45 7f 3b
       0.014775246 0.12521969 0.055990454 0.003895153
0000b0 e8 f3 6d bd 59 54 b1 bd 2d 9a d9 3d 79 17 40 3e
       -0.058093935 -0.08658666 0.1062511 0.18758954

fc.0.weight f4 [24, 48]
000000 e1 2a 01 be 8b 8e 35 3c 84 3a ec bc 5c 61 d1 3c
       -0.12614013 0.011081348 -0.028836496 0.02555912
000010 ec 79 cd bc f7 fa 4d 3d 4d ba 20 bd 68 1f 62 3c
       -0.025082551 0.050288167 -0.03924017 0.013801433
000020 ad e9 d1 3d bb 2e 1b be 59 bc 3f 3d 26 82 0d be
       0.10249648 -0.15154545 0.04681048 -0.13819179
000030 78 83 42 3c 2d 0f fe 3c b2 24 4b 3d 26 86 b3 3d
       0.011872165 0.031013096 0.049595542 0.08765821
000040 b5 e1 00 be af 70 0d 3e 7d 7e ac 3d 8d 63 0c bc
       -0.125861 0.13812517 0.08422563 -0.008568657
000050 8f ee 99 bd 66 f9 4a 3d 90 1b 01 be 8b 5d cb bd
       -0.075162046 0.04955425 -0.1260817 -0.09929951
000060 62 85 15 be cc 9c f0 bd b3 f0 0c be 7f 1e 01 3d
       -0.14601663 -0.11748657 -0.13763694 0.031523224
000070 26 8e 60 bd 53 4b f6 bd 7f ba 8c 3c cb a0 cf 3b
       -0.054823063 -0.12026086 0.017178772 0.0063363067
000080 17 00 2e 3c bc b0 10 bd ec ca db bd a3 99 38 be
       0.010620139 -0.035324797 -0.10732064 -0.18027358
000090 06 30 bd bd 4b 5d 0f be bf ed b2 3d 35 a7 f6 bc
       -0.09237675 -0.14000432 0.08736753 -0.030109027
0000a0 fa 18 28 bd c7 45 d5 3d e8 38 a5 bd df 77 32 3d
       -0.041039445 0.104136996 -0.08067495 0.04357135
0000b0 49 06 63 bb 2e e0 04 3e 56 8a 8b bd 7d db 29 be
       -0.0034641197 0.12976143 -0.06813495 -0.16587634
0000c0 dd 07 94 3d cb 07 d7 3d 7c ce d0 bd 2b dd a8 bd
       0.07228062 0.10499533 -0.10195634 -0.082453094
0000d0 e5 0b 36 bd e8 7c 89 3c 89 b0 e4 3d b6 db 62 bd
       -0.044444937 0.016783193 0.11166484 -0.055385314
0000e0 65 d9 42 3d 44 f9 01 3d a8 7d cb 3c 44 74 a2 3d
       0.047570605 0.03173186 0.024840191 0.07932332
0000f0 1e 8f 75 bd ec b9 04 bd cb 89 d7 3d 3d f7 19 be
       -0.05995094 -0.03240387 0.10524329 -0.1503572
000100 c9 9b b3 3d ec 54 ec 3d 64 f7 17 be 29 e4 47 be
       0.08769948 0.11539635 -0.14840466 -0.1952063
000110 83 26 29 be dc 8f 80 bd 6e 34 e2 3d f9 6f 66 bd
       -0.16518597 -0.06277439 0.110451564 -0.05625913
000120 91 4e bd 3c 6f 7d a2 3d c1 3f d7 bd f8 4c f6 3c
       0.023108752 0.07934081 -0.10510207 0.030065998
000130 72 fa 94 bd 37 f8 a2 3d 58 14 9f bd 10 ff 34 bc
       -0.07274331 0.079574995 -0.07767552 -0.01104714
000140 0d 58 52 bd 28 84 06 be eb 63 de bc 10 d5 00 be
       -0.051353503 -0.13136351 -0.027147254 -0.12581277
000150 75 ad 2c be b7 55 34 be dd 70 e3 bb 88 ca f5 bd
       -0.16863044 -0.17610823 -0.0069409446 -0.120015204
000160 ad 46 cb bc 44 4a 36 3d 45 cf 33 3d e5 56 c0 bc
       -0.024813974 0.04450442 0.04389884 -0.023478935
000170 a0 52 d6 bd 1f d2 1c be e7 da a8 3d e6 d3 b0 bd
       -0.10464978 -0.1531453 0.08244877 -0.086341664
000180 67 9f 89 3d fb 02 28 3e 6a fc 7f bd 67 1a 93 3c
       0.06719857 0.16407387 -0.06249658 0.017956926
000190 a8 b8 56 3e 19 a1 c4 3d 27 e2 b6 3d 5a d3 34 3e
       0.20968878 0.096010394 0.08929854 0.17658749
0001a0 f4 65 4d 3e ca ed ed 3d dd b1 07 3d 1a bd 3b 3e
       0.20058423 0.1161762 0.033128608 0.18333855
0001b0 36 6f e3 3c 72 dc 64 3e fa 69 b2 bd 6a c3 69 bd
       0.02776299 0.22349718 -0.0871162 -0.057071127
0001c0 48 31 8b 3d d4 d4 5e bd 84 8f 39 3e 7e 6c 9b 3d
       0.06796509 -0.054402187 0.18121153 0.075890526
0001d0 11 c0 e5 bb 4a df 0a 3e dc b3 4b 3e 60 77 4a 3e
       -0.0070114215 0.1356174 0.1989283 0.197721
0001e0 84 24 75 bc c6 8d 3a 3e b6 2b 3b 3e 08 46 fd 3d
       -0.014962319 0.18218145 0.18278393 0.12366873
0001f0 36 01 84 bd 21 dc a2 3d ff 53 31 3e 89 0d 06 3e
       -0.064455435 0.079521425 0.17317198 0.13091101
000200 93 c3 42 3e 43 91 fe 3d 16 02 f2 3c a7 b3 de 3d
       0.19019918 0.1243005 0.02954201 0.1087411
000210 df e8 57 bc 9a 9f 5a 3e d6 53 61 3e c7 f9 bb 3d
       -0.013178079 0.21349946 0.22004637 0.091785006
000220 9b 92 77 3d 04 a9 9b bb a6 32 01 3e 48 6a a6 bc
       0.06044255 -0.004750373 0.12616977 -0.02031435
000230 4f 6b ed 3c b3 8c 9b bd d9 9c 02 3e 3d e6 6f 3d
       0.028981833 -0.075951956 0.12755145 0.05856918
000240 0e 9b d7 bc 22 c6 ad bd 3c 53 d9 3d f5 87 d0 bd
       -0.026319053 -0.084850565 0.10611579 -0.10182182
000250 81 08 0c bd d8 36 64 bd b0 92 5b 3d 83 80 23 be
       -0.034187797 -0.055716366 0.05360669 -0.15966992
000260 ab 2b eb 3d b7 6b 24 bd e3 10 91 3d 5a e7 a8 3d
       0.114829384 -0.040141787 0.07083299 0.08247252
000270 1c 5d fa bc 2d 4d 1c be 5e 60 a8 3d 77 fb 67 bd
       -0.030561976 -0.15263815 0.082215056 -0.0566363
000280 9b 33 ed bd cc 4d ff 3d d8 86 1b 3d 10 af 7a bd
       -0.115821086 0.124660105 0.037970394 -0.06120211
000290 2b 0c 93 3d 76 4c 56 3d 82 65 1b 3d f3 10 85 bc
       0.07180055 0.052319013 0.037938602 -0.016243434
0002a0 b2 67 0e be 9f 92 18 bc 89 53 86 bd 01 96 0a be
       -0.13906744 -0.009312301 -0.06558902 -0.13533784
0002b0 3d 62 ea bc 81 7e cf bd fe 25 d4 bd fe c3 dc 3b
       -0.028611297 -0.101315506 -0.10358809 0.0067372313
0002c0 c8 e9 42 3d eb 9e 0a 3e b2 50 bd 3c 88 a1 06 be
       0.047586232 0.13537185 0.023109768 -0.13147557
0002d0 85 3f 0b be 81 a6 65 bd 1e ad c0 bc 9e 23 40 3d
       -0.1359845 -0.056066994 -0.023520049 0.046908967
0002e0 6b 17 89 3c 13 ff ab bd e3 74 33 be 9d 36 3e be
       0.0167348 -0.08398261 -0.17525057 -0.18575521
0002f0 38 22 1b 3d 94 80 4b 3d 08 8c fb 3d 58 83 f9 bd
       0.03787443 0.04968317 0.12282568 -0.12183255
000300 9b b1 e4 bd 53 5d bf bd fb cd dd bb 43 dc 0d 3d
       -0.11166688 -0.09343972 -0.0067689396 0.034633886
000310 6e 60 16 3c bb 4c f4 bd ef 83 14 be 07 f8 ae 3c
       0.009178264 -0.11928698 -0.14503454 0.021358503
000320 1e 62 82 bd 39 11 39 be 9a 9c f8 bd 95 74 00 be
       -0.063663706 -0.18072976 -0.121392444 -0.12544473
000330 e9 52 4a be c7 a0 cd bd 87 d6 b3 bd 62 04 1e 3d
       -0.1975819 -0.100404315 -0.08781152 0.0385784
000340 25 3f 08 3d 68 55 4f 3c 08 4f 67 3c ba 3c 92 3d
       0.033263344 0.01265464 0.014117964 0.07140489
000350 7a 37 a5 bd e7 55 4d bc e0 60 6e 3d 73 02 14 be
       -0.08067222 -0.012532688 0.058197856 -0.1445406
000360 c7 3d b6 bd e2 85 10 bd 2d 53 80 3d f6 18 0b be
       -0.08898502 -0.03528393 0.062658645 -0.1358374
000370 34 ba 6b 3d 85 ac c8 3a 13 b0 1a be 5c ac 18 be
       0.057550624 0.0015310204 -0.1510623 -0.149095
000380 51 ec b6 bd ad 8e 2f bd d5 1c 7e 3d fd e1 fd 3d
       -0.089317925 -0.042860676 0.062039215 0.123966195
000390 08 3a 75 3c 19 1c 46 3c c8 df 7c bd b6 f5 d7 bb
       0.014967449 0.01209166 -0.061736852 -0.0065905703
0003a0 9a 77 12 be 3a c5 e2 bd 18 7a 62 bd 6c f6 4f 3b
       -0.14303437 -0.11072774 -0.05529222 0.0031732572
0003b0 c8 dd 02 be 03 3a 1d be 5d 9c cc bd 38 89 a8 3c
       -0.12779915 -0.15354161 -0.099907614 0.020573243
0003c0 bd b5 85 bc 49 79 0d bd 3b 66 a6 3d 78 8d 8c bd
       -0.016322011 -0.034539495 0.08124968 -0.068629205
0003d0 c0 fb ce bc 3e 90 36 3c e9 70 03 3e 72 14 29 3e
       -0.025266528 0.011142788 0.1283604 0.16511706
0003e0 04 ce 87 3d c7 85 9e bd 59 8d e0 3d 12 79 57 3e
       0.06631091 -0.0774036 0.1096446 0.21042278
0003f0 c3 80 0f bc 9f 09 9e bc 7d 11 d2 3c c0 fb 24 bd
       -0.0087587265 -0.019291697 0.025643105 -0.04027915

fc.0.bias f4 [24]
000000 dc fe a0 3d 6d 0f 92 3c 59 f0 c5 3c 94 cd 62 3d
       0.078611106 0.017829621 0.024162458 0.055371836
000010 5e d4 4b 3d eb 70 1c 3e 4a 4e 3a 3e 0c 02 99 3d
       0.049763076 0.1527745 0.18193927 0.074710935
000020 1f a3 61 3d 1c d2 3d 3e 6c e7 1e be e5 97 13 bc
       0.055087205 0.18537182 -0.15517968 -0.009008382
000030 e8 cf d7 bd 0f c4 f1 bd 43 f6 9a 3d 51 55 1c be
       -0.10537702 -0.11804973 0.07566502 -0.1526692
000040 0f 7e e8 bd 9a bb 07 be 94 dc 4b bc 44 5d 4f 3e
       -0.11352169 -0.13255158 -0.012442727 0.20250422
000050 83 ae 96 3c 86 0a 7d 3d fc 50 33 3e e9 1f d7 3d
       0.01839376 0.061777614 0.17511362 0.10504133

fc.2.weight f4 [12, 24]
000000 7c 6c 2d 3e d8 bb 44 3e fd dd f2 bc 7c 11 62 3e
       0.16935915 0.19212282 -0.029646868 0.22076982
000010 ad 04 5b be f3 d2 57 bd 19 35 2a 3e e5 42 1f 3b
       -0.21388502 -0.05269141 0.16621818 0.0024301347
000020 fd 6d 40 3e b1 9b 43 bc 48 0d 42 3e 1e 21 de bd
       0.18791957 -0.011938975 0.18950379 -0.1084616
000030 aa 1a 9f bd ed d4 85 bd e2 06 19 be b1 81 7b bd
       -0.07768758 -0.06534753 -0.14944032 -0.06140298
000040 3a dc 4a 3e a0 20 e1 3c a1 8c 41 3c 7d 15 ca 3d
       0.19810572 0.027481377 0.011813314 0.0986738
000050 a0 a4 36 3d 79 c9 26 be 40 2a 3a be 49 ea b1 bd
       0.044590592 -0.16287793 -0.1818018 -0.086872645
000060 b6 0b 0d 3d d0 90 66 3d ab 9f 28 bd 5e 85 26 3e
       0.034434997 0.056290448 -0.041167896 0.16261813
000070 07 b9 db 3d 15 1f 54 be a4 58 76 3d e1 8d 62 bc
       0.107286505 -0.20714982 0.060143128 -0.013827772
000080 3c d5 59 3e f0 6a 21 3e 52 48 8e 3d 2b 04 96 3d
       0.21272749 0.1576345 0.06947388 0.07325014
000090 0e 89 ee 3d 00 a9 1a 3e 29 52 30 3d 7e 59 c0 3c
       0.11647235 0.15103531 0.043047104 0.023480173
0000a0 09 75 3c bd 03 34 02 3e 68 22 5c bc fa 89 1d be
       -0.04601005 0.12715153 -0.013435937 -0.15384665
0000b0 07 e7 27 3d 9b 66 70 3d 2a 35 e1 3d 1e e6 3c be
       0.04099181 0.058691602 0.10996468 -0.18447158
0000c0 c9 f3 30 3e bd d6 23 3e 39 8b 87 bc 2c 18 b1 bd
       0.17280497 0.15999885 -0.016545879 -0.086471885
0000d0 93 a9 82 be 3d ff 09 be 6b cd a9 bc c1 0a 03 3e
       -0.2552 -0.13476272 -0.020727834 0.12797071
0000e0 0c 44 41 3e 16 4b 33 bd d3 dd 4b 3e 5c f4 8d 3d
       0.18873614 -0.04377278 0.19908838 0.069313735
0000f0 07 7b fc 3c 9b 9f 0d be b1 5c 34 3d 36 3b 55 3e
       0.030820383 -0.13830416 0.04403371 0.20823368
000100 95 5c e2 3d a6 87 02 be 73 ca 38 3e 9c ea 71 be
       0.11052815 -0.12747058 0.18045978 -0.23624653
000110 d8 de 75 bd 72 36 19 3d 48 1a 17 3e 72 fb 15 be
       -0.060026973 0.03740544 0.14756119 -0.146467
000120 e5 ab 2d be 35 7a 8d bd 92 0b d8 3d 35 0b 95 be
       -0.16960104 -0.06908075 0.10549082 -0.29110113
000130 0f f6 5a 3c 83 81 6c 3e fd 9b b2 3d 4e 15 38 bc
       0.013364329 0.2309628 0.08721159 -0.011235548
000140 de e0 81 be 33 36 9d 3e cc 3a 89 3d 4e 54 17 3c
       -0.25366873 0.30705413 0.06700668 0.009236408
000150 30 36 81 be cf 56 6a be 0a ff 22 3e 49 2c 91 be
       -0.25236654 -0.22884677 0.15917602 -0.283541
000160 db 03 67 be 81 23 ca 3b 10 f8 68 3e 13 1d 84 3e
       -0.22560064 0.006168783 0.22750878 0.25803432
000170 03 06 1a 3e d3 cb 77 3e 2a c0 92 3e 9f 15 38 3d
       0.15041356 0.24198847 0.28662235 0.044942494
000180 c7 52 32 3e 0b 4a 10 bc 7b 27 06 3d 57 e5 51 3e
       0.1741439 -0.008806716 0.032752495 0.20497642
000190 34 af ab bd 3e 2e c3 bd 36 b4 50 bd bf e2 b2 bc
       -0.08383027 -0.09530304 -0.050953113 -0.021836637
0001a0 57 42 4c 3e e0 b3 95 bd 41 0b 1a 3e a0 b7 67 3e
       0.19947182 -0.07309699 0.15043356 0.22628641
0001b0 12 05 6e 3e 64 cf 20 3e 59 d9 02 bd 26 39 cb 3c
       0.23244122 0.15704113 -0.03194556 0.024807524
0001c0 2c bf 78 3e 1a 25 c7 bd 13 57 bf 3d 1b b3 ca 3b
       0.24291676 -0.097238734 0.0934278 0.006185902
0001d0 63 88 62 3d b8 cb 34 3e e2 32 7a bd 26 86 8a bd
       0.05530585 0.17655838 -0.061083682 -0.06763868
0001e0 8a 07 91 bc 17 6d c5 3d ac 6c fc 3d 8e d8 f8 bd
       -0.01770379 0.09639948 0.12325415 -0.121506795
0001f0 a2 a0 df 3d ef 43 bb 3d 09 14 1d 3e e6 2c 5e bd
       0.1091931 0.09143817 0.15339674 -0.054242037
000200 8d 20 a7 bd c0 85 20 bd c9 f8 39 be 7c 19 af 3d
       -0.081605054 -0.039190054 -0.1816131 0.08549783
000210 d6 c5 af 3d 5a c7 cf bd 3d 16 8a 3d 94 89 b0 bd
       0.08582656 -0.10145445 0.06742523 -0.08619991
000220 fc 4e 32 3b ca 56 79 be fb 59 28 3e 33 3a e4 3d
       0.0027207723 -0.24349514 0.16440575 0.11143913
000230 8a 6a 03 bd ec dc a1 3d d2 50 c6 3c ec 97 37 3d
       -0.032084025 0.07903466 0.02420846 0.04482262
000240 e2 49 12 3e ec 35 bb 3b ac 36 18 3d bb 02 0c be
       0.14285997 0.005713215 0.037161514 -0.13672917
000250 81 d7 36 3e b9 20 a4 3d 3b 6c 2a 3e 08 b3 3b 3e
       0.17855646 0.08014054 0.16642849 0.18330014
000260 55 f3 6c bd d7 c7 b9 3d 97 4b 86 be 34 33 5f be
       -0.057849247 0.090713196 -0.26229545 -0.21796876
000270 c7 0a 1f 3d 70 78 5d be 5a ed c7 3d a4 68 fa bd
       0.038828637 -0.21627975 0.09762068 -0.1222699
000280 8d a9 7d 3d 9a fe 49 be 7d 7c 3a bd 91 91 7a 3e
       0.061929274 -0.19726029 -0.045528878 0.24469592
000290 4b 7b 03 be aa eb 82 3c c5 9b 25 3e 16 b9 82 bd
       -0.12840001 0.015981514 0.16172703 -0.063829586
0002a0 25 b5 24 3d f7 75 48 3e 6e 2b c8 bd 70 81 b1 bc
       0.040211815 0.1957625 -0.097739086 -0.021668166
0002b0 2a a0 09 bd d4 2d 00 3d 76 b5 d8 bd 1f d0 b3 bb
       -0.03360001 0.031293705 -0.10581486 -0.0054874565
0002c0 c5 44 54 3e 70 5a 43 be 4c 8a 66 bd 42 e3 07 be
       0.20729358 -0.19077468 -0.056284234 -0.13270286
0002d0 c0 ba 02 3e 89 95 6d 3e 43 a8 aa 3d fa 65 15 3e
       0.12766552 0.23201574 0.083328746 0.14589682
0002e0 b0 1f 39 3e c7 21 b1 3d f2 86 26 be 14 b6 3d bc
       0.18078494 0.08649021 -0.16262415 -0.011579055
0002f0 9e 34 0c 3e d7 bc 10 3e 65 0d 18 3e ca 0e 48 be
       0.13691947 0.14134537 0.1484886 -0.19536892
000300 15 59 69 3c e8 2b 80 be 53 d9 49 3e 88 06 1e be
       0.01424243 -0.25033498 0.19711809 -0.15432179
000310 d9 2c 0b be 5a 48 33 bd 0d d2 87 3e 17 f2 9e 3e
       -0.13591327 -0.04377017 0.26527444 0.31044075
000320 6a f0 26 bb 7a 6c 84 3e 16 bc 91 be 09 85 4d be
       -0.0025472888 0.2586401 -0.2846381 -0.2007028
000330 5a 4b 46 bd 7a 35 ea 3c 43 07 e5 3d c5 f9 81 be
       -0.048411705 0.028589953 0.11183026 -0.25385872
000340 be d6 21 3d 98 52 17 be 28 da 6e 3d 6c aa 0b 3e
       0.039511435 -0.14777601 0.05831352 0.1363923
000350 6a 2c 6b 3e 62 66 47 bc bc ff 84 bc 75 55 15 3e
       0.22966161 -0.012170406 -0.016235225 0.1458338
000360 72 9e b4 bd 0d b3 6d 3c d2 e7 da 3d f5 5a 37 3e
       -0.088192835 0.014508021 0.106887475 0.17905791
000370 80 76 7c be cb 25 93 3d ee 86 f1 3c 83 17 ac 3d
       -0.24654579 0.07184943 0.029483285 0.08402922
000380 d9 68 4e 3e a5 df 4b 3d 0f f6 07 3e 71 aa 07 bd
       0.20157184 0.04977383 0.13277458 -0.03312153
000390 8b 92 07 bd c3 54 fa bd 99 ea 4a be 91 e5 43 3d
       -0.03309874 -0.12223198 -0.19816054 0.047826353
0003a0 93 1e a9 3c c2 d0 1e 3e f8 d4 bd 3c 1c a8 4d be
       0.020644462 0.15509322 0.02317284 -0.2008366
0003b0 2c ef e7 bd fc a8 82 bd 18 92 49 be 86 54 97 bc
       -0.11324915 -0.063798875 -0.19684637 -0.018472921
0003c0 2c 27 4a 3d f5 c4 2e bd a4 79 93 3e 02 2c ac bd
       0.049353763 -0.0426683 0.28803742 -0.08406831
0003d0 9e 4a a5 bd 6b 88 a0 3d 9a ae f6 3c eb 6f 28 3e
       -0.08070873 0.0783852 0.030112553 0.16448943
0003e0 b5 03 13 3d ac 9a 3e bd 30 6b a8 3d d9 1f db 3d
       0.035892207 -0.046534225 0.082235694 0.10699434
0003f0 92 b6 23 be a2 e1 3d be a8 0a 50 bd 06 04 21 be
       -0.15987614 -0.18543103 -0.050791413 -0.15724191

fc.2.bias f4 [12]
000000 0d 81 90 bd 98 c9 9e bd 22 52 80 bd 3f bd 21 3e
       -0.070558645 -0.07753295 -0.062656656 0.15794848
000010 b0 a8 ea bd c2 07 10 3e b2 d0 4f bb 3b 6e ff 3d
       -0.11457956 0.1406546 -0.0031710085 0.12472197
000020 ab 2c db 3b 5e a8 9a 3d 2b 9b ee 3b a7 da 8b 3d
       0.0066886744 0.07551645 0.007281681 0.06828814

fc.4.weight f4 [6, 12]
000000 de cb 26 bd 89 ee 85 be 96 21 a7 be 22 77 1e 3d
       -0.040721767 -0.2615855 -0.32642812 0.038687833
000010 85 eb 3a bd 60 53 7b bd 8e b3 8b bd 13 75 a7 bd
       -0.045634765 -0.06135881 -0.06821357 -0.08176627
000020 00 b7 a5 3e a1 5e fa bc 61 e2 1a bd 87 f9 22 be
       0.3236618 -0.0305627 -0.037813548 -0.159155
000030 23 b2 8a 3e c6 f4 68 3e 13 d9 12 be 79 c0 c7 3d
       0.27089033 0.22749624 -0.1434062 0.09753508
000040 41 9c 99 bc 59 f1 9d 3e 93 f4 82 be 47 7f 6a be
       -0.018751265 0.30848196 -0.2557722 -0.22900115
000050 ab 64 2b be ab a4 5f bc 7d 95 78 bd 9e b9 68 3e
       -0.1673762 -0.0136501 -0.060689438 0.22727057
000060 d6 99 96 ba 65 f9 64 bd 32 c9 72 3e dd c3 73 bd
       -0.0011489938 -0.055901904 0.23709562 -0.05951296
000070 20 81 92 3d f0 3c 03 3c 7b 3a 90 be c8 d5 e4 3d
       0.07153535 0.008010134 -0.28169617 0.11173588
000080 48 4a 37 3d bd 54 09 3e ea 96 4d 3e 9e 46 97 3e
       0.044748574 0.13411231 0.200771 0.29546064
000090 96 e3 ae 3c c2 38 58 be 1d 8e 5c be df 96 57 3e
       0.021348756 -0.21115401 -0.21538587 0.21053647
0000a0 21 40 c2 be d0 14 71 3d 5e 4e a0 3e b2 b3 61 be
       -0.3793955 0.05885774 0.3130979 -0.22041205
0000b0 0d 60 65 3e e5 6a 81 bc 00 66 41 be 91 43 af bd
       0.22399922 -0.015798042 -0.18886566 -0.08557809
0000c0 e9 3f 98 be 05 e4 9d be e6 66 be be d6 b8 91 3e
       -0.2973626 -0.30838028 -0.3718788 0.2846133
0000d0 db 24 8a be 5a 21 40 3e 9c 03 96 bd 1e 0e 83 be
       -0.26981243 0.18762723 -0.07324907 -0.25596708
0000e0 7c 8e 92 3e 54 34 8c be d5 af aa 3e 07 87 41 be
       0.28624332 -0.27383673 0.33337274 -0.18899165
0000f0 11 11 10 3e eb 49 09 3e 4b 85 39 3e b4 5a dc 3d
       0.1406901 0.13407104 0.18117253 0.10759488
000100 69 df 93 3e 37 24 57 be db 2f 85 bc b0 41 fe bc
       0.28881386 -0.21009909 -0.01625817 -0.031037182
000110 06 fb a9 bd eb c7 9b 3e c2 bd 53 bd 7f da 51 3e
       -0.08299832 0.30425963 -0.05169464 0.20493506

fc.4.bias f4 [6]
000000 97 9e b8 3e 39 fe 93 be 14 77 ba be 0b 8f 54 3d
       0.36058494 -0.28904894 -0.36418974 0.05189423
000010 a4 58 9b 3c f2 0f 23 be
       0.018963166 -0.15924051

fc.6.weight f4 [1, 6]
000000 81 f0 f9 3d 34 b2 d9 be 50 23 de be 50 d7 70 3e
       0.122040756 -0.4251877 -0.43386316 0.23519635
000010 b0 14 e4 3e af 73 83 bd
       0.44547033 -0.06418549
