model_ar2 (1).pt (torch, 24150 bytes, 11 tensors)

rnn.weight_ih_l0 f4 [48, 24]
00000000: c34f 5a3d a5b8 9e3d ae6b 003d 43d9 b6bc
00000010: fd09 03be c162 e73d a237 5c3d bfe1 0cbe
00000020: 1d59 3dbd 4677 d33c 34ee ce3d 700f 823d
00000030: b43d d53d 8545 d2bd 460d 0a3e ad0a d4bb
00000040: 312d 283d 69a2 d9bc de30 c33d c906 94bc
00000050: 5948 fa3d 1fc4 08be 25fd 0ebe 4903 0b3b
00000060: 27f3 0bbe f05c e93b 7e4a fd3d e0f4 eabd
00000070: 321b 0dbe dde1 5b3d d50b 6d3d 0ac0 8cbc
00000080: 73d5 a03d f0d7 d4bd e187 76bd fff3 e63d
00000090: 9bfb 0bbd bdb6 a4bd bfc6 de3d f44e 1e3d
000000a0: 85ea c63b 8f11 853d 3b84 173e 2789 833d
000000b0: cd9c 90bd 238b 8cbd 3b93 21be e3e2 64bd
000000c0: d6e5 c6bb 9636 a83d 3924 87bd 3155 863c
000000d0: 1d94 e6bd 6bb5 9dbd 93b6 2a3d ba4b e63d
000000e0: 16f8 c43d 3fbe b63b 1c76 d3bd c19f 0a3e
000000f0: 6a5b 4fbd 96b2 beba 6c33 7c3c 8b61 c9bd
00000100: 717f 5ebd faaa dabd 09bd c8bd 6890 4d3d
00000110: f633 edbd a164 e4bd 7ede b8bc 3de0 163e
00000120: 680c b93d a36b f6bc 36ba 243d a75f 0f3d
00000130: ea2a 3f3d 55cf 033c 5f1e 84bd eef6 f5bd
00000140: 638b 0b3e e74c 6ebd 39c5 1f3d 7ddf ca3d
00000150: b591 e6bd 1b52 783d 17f3 08be df52 7d3d
00000160: 268e 46bc f5e5 c43d fe16 a0bc c447 573b
00000170: d59b 293e fb26 1d3e 6aa5 05bc d0c8 863e
00000180: a888 fdbb b057 90bc c0d4 c33d 5c33 16bd
00000190: bfe3 ce3d 6e22 4f3d 0e80 5a3d c99c 85bd
000001a0: 7950 ec3b 6942 4fbd 57fd 6c3d bc0c 073e
000001b0: 5ae7 3b3d 3cc8 0f3d 96cb af3d 877b 403e
000001c0: 5716 32bd 91d7 913c 1824 303e 3651 5dbd
000001d0: 63a5 1ebd 534b 533e 9c23 aabd 309f 713d
000001e0: b58f e43d 8650 a83d 4a92 c3bb 49d9 20bd
000001f0: e036 12be b669 94bb 52f1 babd 6d9a ab3c
00000200: ba97 e33d 110f a4bd e429 17bd 825b aabd
00000210: f942 c73c f265 e2bd 9fb3 4f3d 2f06 a53d
00000220: 49f0 1f3c e988 303c d907 4b3e 4fea a13d
00000230: a26f 903c d385 193e 399f 06bd 433e 023e
00000240: f8e4 da3d a073 643d 9a54 c73d 2f14 a83d
00000250: e1dd 9fbd fcf2 21be 4abf f5bd 2ac1 c5bd
00000260: fa4e ad3d a3df c7bc ba97 bc3b 7d57 ab3d
00000270: 6c07 97bd df44 9a3d deb0 0abe 81fd 57bd
00000280: 8e98 bcbd ea03 89bc 5b37 15bd 8f89 ef3d
00000290: 9dff 0a3e d7a5 0b3d 22f1 583d 26c3 9b3e
000002a0: 666b 2ebe 0d22 a03d 3ed9 d33d ffd3 b33c
000002b0: 9e89 cf3d 8dc7 06be 9d4b 0abe d569 c63d
000002c0: 38fe 743d 9950 8a3d f105 9f3d d668 9cbd
000002d0: d2dc 05be 9466 05bd 6e08 b63d 1a0c 1b3d
000002e0: 6628 f03c 6c7d cb3d b7fa 00be be18 3fbd
000002f0: 8a1b 3fbd c5fe 3f3e e663 fb3d 7260 12be
00000300: 6011 4a3d 4e8d 88bc d67b eabd cf63 66bd
00000310: d577 dbbd 6608 0fbe c086 c1bc 82c6 b4bd
00000320: 95e4 81bd 1e13 fa3d f605 6dbd 271c 93bd
00000330: e139 d63d d2da 193e a6c1 183e 5472 273e
00000340: 317d a03b dc12 823c acac ba3d a75e e5bd
00000350: 5a90 2bbe 7134 8c3b 37dc efbd 71d9 2cbd
00000360: 951d 12be 113f b83d 6da5 f4bc a982 ddbd
00000370: cf1d 84bc 54aa 0a3e 93a4 a63c aba3 cfbb
00000380: 1203 e5bd dc22 5ebd b048 b93d 6b53 8cbd
00000390: 77ee 253e a88b 473d 4d47 dbbc becb 023e
000003a0: dfd9 d5bd 0f9f 53bd 64a7 5f3d 3b4d 293e
000003b0: d69a fc3d 325a 0b3e 7847 583d cfb9 993e
000003c0: f383 0b3e 68e0 97bd 579f ecbd 6bda 803b
000003d0: f35a 3cbd d064 90bd dde7 df3d 9721 043e
000003e0: 3742 19be 0358 4cbd 6563 8cbd 727b c83d
000003f0: a5f2 463d 7ad3 b33d 2381 9c3d 29d9 c13d
0.053298723 0.07750062 0.03135269 -0.022320395 -0.12796779 0.11298133 0.053763993 -0.1375799
-0.046227563 0.02581371 0.101040274 0.06350601 0.104121596 -0.10267166 0.13481626 -0.006470999
0.041058723 -0.026566701 0.09530805 -0.018069642 0.122208305 -0.13356064 -0.13963754 0.0021211675
-0.13666974 0.0071216747 0.12367724 -0.114724874 -0.13779905 0.053682197 0.057872612 -0.017181415
0.07853212 -0.10392749 -0.060188178 0.11277007 -0.034175497 -0.08042667 0.108777516 0.038649514
0.0060704374 0.0649749 0.14796536 0.06422644 -0.070611574 -0.06862476 -0.1577882 -0.05588044
-0.006069879 0.082135364 -0.06598706 0.016398044 -0.11258719 -0.07700618 0.041678023 0.112449124
0.09617631 0.0055768783 -0.10325262 0.13537504 -0.05062429 -0.0014549072 0.015393119 -0.09833058
-0.054320756 -0.106771424 -0.098016806 0.050186545 -0.115821764 -0.11152006 -0.02256703 0.14733978
0.090355694 -0.030080622 0.040216647 0.03500333 0.046671785 0.008045037 -0.06451105 -0.12009989
0.1362739 -0.05817881 0.039006446 0.09905908 -0.1125826 0.060625177 -0.13373981 0.06184661
-0.012118852 0.09614173 -0.019542214 0.0032849172 0.16563351 0.15346901 -0.008157114 0.26325083
-0.007737238 -0.017619938 0.09562063 -0.036670074 0.10102033 0.050569944 0.05334478 -0.06524045
0.0072117415 -0.050600443 0.05785879 0.13188452 0.04587493 0.035103068 0.08583753 0.18797122
-0.043478336 0.017802985 0.17201269 -0.054032527 -0.038731944 0.20634203 -0.08307573 0.058989704
0.111602224 0.082184836 -0.0059683667 -0.03926972 -0.14278746 -0.0045292033 -0.091280594 0.02094766
0.11112924 -0.08010686 -0.036905184 -0.08318235 0.024323927 -0.11054601 0.05070841 0.0805782
0.009761878 0.010774829 0.19827212 0.07906019 0.017631356 0.14992456 -0.03286669 0.12719063
0.106882036 0.05577433 0.09732933 0.08206975 -0.07805992 -0.15815347 -0.11999376 -0.09655984
0.08462329 -0.02439863 0.005755392 0.083662964 -0.073744625 0.07532667 -0.13544032 -0.052731995
-0.09208785 -0.0167255 -0.036429744 0.11696159 0.13574071 0.034093704 0.052964337 0.30422324
-0.17033157 0.07818995 0.1034417 0.021951674 0.1013367 -0.1316206 -0.13505407 0.096881546
0.059812754 0.06753654 0.07764805 -0.07637183 -0.13072518 -0.03256853 0.088883266 0.037853338
0.029316138 0.09936032 -0.1259564 -0.046654455 -0.046657123 0.1874953 0.122749135 -0.14294603
0.049332976 -0.016668942 -0.11449401 -0.05624753 -0.107162155 -0.13968047 -0.023623824 -0.08826925
-0.06342427 0.122106776 -0.057867013 -0.07183104 0.10460258 0.1502488 0.14917621 0.16352206
0.0048977365 0.015878133 0.09114966 -0.11199694 -0.16754285 0.0042787124 -0.117119245 -0.042199556
-0.14269097 0.08996404 -0.029864037 -0.10815937 -0.016127495 0.13541538 0.020342147 -0.0063366494
-0.11182226 -0.054232463 0.09047067 -0.06851848 0.16204248 0.04871717 -0.026767397 0.12773034
-0.10441946 -0.051665362 0.054602996 0.16533367 0.1233422 0.13608626 0.052802533 0.30024573
0.13624553 -0.07415849 -0.11553829 0.0039322875 -0.045985173 -0.070504785 0.10932896 0.12903439
-0.14966665 -0.049888622 -0.068548955 0.0978917 0.048571248 0.0878057 0.076418184 0.09465248

rnn.weight_hh_l0 f4 [48, 48]
00000000: ede1 9bbd e331 cabd 6329 e33d 494b debc
00000010: 9888 923d 3c2c 5fbd d398 043e 7aec d43d
00000020: 93cb d13b 8b8b 35bc daaa d73d 73f5 c4bd
00000030: 0aba b73d 8f30 87bd 36fe 5fbd fd55 31bd
00000040: 4427 9f3d 04d9 e93d d3b9 8a3c d49e 99bc
00000050: 3bf2 9dbd c360 1b3d af18 8e3d 13c0 853d
00000060: db55 a53d 7664 e53d c5ce 37bc f969 80bd
00000070: 7d7f 8d3d 9c66 0e3e ecad 2bbb bf0f b6bd
00000080: 35ff b4bd e786 bf3d d608 78bc 1944 a03c
00000090: c03e 103e ba37 0a3e 10d2 16bd e548 50bd
000000a0: 7d73 00bc 27fc f4bc b805 8bbd 1054 dc3d
000000b0: e706 28ba bdcc 5d3d cf86 07be 1f0c a13d
000000c0: 190f e9bd 40d4 cdbd bfa9 dc3d 18c6 ee3c
000000d0: a96c 0c3e 8973 0c3e 0c1d 973d e4d9 0fbe
000000e0: 4af2 80bd 1e09 91bd 30af edbd 27cc d1bb
000000f0: bba7 ca3d 624f fabb 45f0 b43d fa1e b13d
00000100: 30ab 35bd c902 6bbd 3212 d93d 1eda ba3c
00000110: daec 4039 d195 5d3b 580d 8e3d 03e0 e4bd
00000120: 13ce adbc 1353 f13d fb6d 923d 73ce e8bd
00000130: 6dcc 6d3d 9fe0 ba3d 6408 b0bc cf85 d63c
00000140: a01a a73b d5b8 0abd 3189 f0bd 5084 d53d
00000150: 1253 853c a1af 883d 45f1 febd 52f2 453d
00000160: c45b b6bd 00f7 83bd ea05 ad3d 9de5 e2bd
00000170: ef24 4dbb 45c5 d4bd f42c 593c a28e 593d
00000180: 7546 d03d 7869 12bd bead f53d 082b 4a3d
00000190: d6e7 723d 95f5 b03d e0c9 e43d b343 373d
000001a0: ce96 aebd c641 b3bd 1895 a93d 4619 b63d
000001b0: 2916 383d 708b 033e a1fe 47bc ebce fe3d
000001c0: ee89 c73b 8b4d 2cbd 5729 acbd 6183 0b3e
000001d0: 834c aa3c cb3b ce3d cd08 f5bd e983 363d
000001e0: cb35 0cbe c3e7 243d 7738 723d ae51 03be
000001f0: fe99 d93d 7670 1d3c e01c bb3d ad40 41bd
00000200: 471e a6bd 9e1c f1bd 2954 cb3d b599 373d
00000210: 169e c8bd af64 bf3b ef0e 053e 160d 0ebe
00000220: 5a43 7e3d a686 cabd a119 a23a 32cd 4c3d
00000230: 227d 27bc 81e9 c1bd 0ba2 54bd 94f2 64bd
00000240: c0cb 063e dec3 f43d e23f d33d 341d 093e
00000250: 2e29 95bd 59b8 28bd 5c94 bbbd 0291 03bd
00000260: e0ba 923d 9af1 b9bd 1a54 24bd 9c7b cd3d
00000270: 0b96 aa3d f5c5 7cbd b05e 13be d5a8 063e
00000280: 58af e3bd 3dc3 113e 9f68 ddbd 10ed c83d
00000290: 6d62 07be 47c0 cabd de22 fc3d 281f 2b3d
000002a0: 297b 67bd 1b2c 403d 8c17 d73d aee3 953d
000002b0: 3682 b0bd 91c3 55bd 58ce aa3b d6c8 893d
000002c0: e117 003e 93b7 423d 5c0a 053e 4496 a43d
000002d0: daa6 c9bd 66ff 763a 5a50 8bbd c7be 983a
000002e0: ac98 16bd 81eb 103e b8bc 443d c3e1 153c
000002f0: b193 e3bb e0da 843c b44a 093c d9f2 61bd
00000300: d666 773d 1ee7 11bd dc48 c2bd 4a8b dcbd
00000310: 3aa5 b6bd be39 033e e77d dc3d 935d 94bd
00000320: 405a 093e b17f ae3d 8465 a5bd 3fe0 33bd
00000330: 8909 3cbd 44e8 12be ba5d 7bbb 7166 dfbb
00000340: 7868 92bd 1ef0 0dbe a4d4 9f3d 9189 273d
00000350: 9b02 6dbc 52b3 e43d 2433 09bd af91 be3d
00000360: 8a36 fbbc cb4e 05be c40f 5ebd 5d56 dcbc
00000370: 6b63 9ebd 2a74 a6bc 2a51 243c 4be8 323d
00000380: 0291 36bc f17e dd3c 147d c03d a259 0e3e
00000390: bc2c fdbd b906 9d3d 4113 823d 3d31 00be
000003a0: a10e 773c 4044 453c 448b 49bc 1065 bd3d
000003b0: ffa6 97bd ed7e 60bd 5c3d aebb a182 033e
000003c0: 255d 9bbd 1675 c03c cf3a 013e e2b6 ed3b
000003d0: 95de 07be 81e9 e4bd 0aa4 0d3e e4a0 fbbd
000003e0: 0531 87bd c727 a93d 4c1f da3d c14f 973d
000003f0: 9e17 e1bd 00cb 523d 095f b0bd f369 f83d
-0.07611451 -0.098727964 0.11091878 -0.027135508 0.071549594 -0.054485545 0.12948923 0.10396667
0.0064024418 -0.011080633 0.10530634 -0.09617128 0.08971031 -0.06601059 -0.054685794 -0.043294895
0.07771161 0.114183456 0.016934311 -0.018752493 -0.077122174 0.037934076 0.06938302 0.06530776
0.08073016 0.11200802 -0.011218731 -0.06270213 0.06909082 0.1390633 -0.0026196195 -0.08889722
-0.088377394 0.093519025 -0.015138825 0.019563721 0.14086437 0.1349782 -0.036821425 -0.050850768
-0.007840035 -0.029905392 -0.067882 0.10758221 -0.000640972 0.05415033 -0.13235019 0.0786364
-0.11379833 -0.10050249 0.10774564 0.029147193 0.13713326 0.13715948 0.07378587 -0.14047962
-0.06296213 -0.07081817 -0.1160568 -0.0064025107 0.09895273 -0.0076388577 0.0883489 0.086484864
-0.04435271 -0.057375703 0.105991736 0.022809085 0.00018398781 0.0033811221 0.06936139 -0.11175539
-0.021216428 0.11783423 0.07149883 -0.11367502 0.058056284 0.09124874 -0.021488376 0.026186852
0.0050996095 -0.033867676 -0.11744917 0.10425627 0.016274963 0.066741236 -0.12448362 0.048326798
-0.08904222 -0.06443596 0.08448394 -0.110789515 -0.0031302532 -0.10389189 0.013255347 0.05311454
0.101696886 -0.035745114 0.11996029 0.049357444 0.059303127 0.08640591 0.11171317 0.044742297
-0.085248575 -0.0875278 0.082803905 0.08891539 0.04494301 0.1284616 -0.012206704 0.1244181
0.0060894405 -0.04206614 -0.084063224 0.13624336 0.020788437 0.10069998 -0.11964569 0.044559393
-0.13692395 0.040260088 0.05913588 -0.12824127 0.10625075 0.009609332 0.09136367 -0.04718082
-0.08111244 -0.117730364 0.09928162 0.04482432 -0.097957775 0.00584086 0.12993978 -0.1387218
0.06207595 -0.098889634 0.0012367257 0.050000377 -0.010222705 -0.094683655 -0.05191235 -0.055895403
0.13163662 0.11951421 0.10314919 0.13390046 -0.07283245 -0.041191433 -0.09159157 -0.032120712
0.0716455 -0.09079285 -0.040119268 0.10033342 0.083294 -0.061712224 -0.14391589 0.13150342
-0.111174285 0.14234634 -0.108109705 0.09810841 -0.1322114 -0.09899955 0.12311338 0.04177776
-0.05651394 0.046917062 0.10502538 0.07318817 -0.08618586 -0.05218846 0.0052125864 0.067277595
0.12509109 0.04753835 0.12992233 0.080364734 -0.098462775 0.00094222126 -0.06802435 0.0011653536
-0.036766693 0.14152338 0.04803154 0.009148064 -0.0069450964 0.016217649 0.008379627 -0.05516324
0.060400806 -0.0356208 -0.09486553 -0.10768755 -0.08918233 0.12814996 0.107662015 -0.0724441
0.13413334 0.08520449 -0.08076003 -0.04391503 -0.04590753 -0.14346415 -0.0038355426 -0.006817632
-0.07148832 -0.13861129 0.0780423 0.040902678 -0.014465953 0.11167015 -0.033496037 0.09305131
-0.030665655 -0.13018338 -0.054214254 -0.02689665 -0.07733806 -0.020319063 0.010029117 0.043678563
-0.011142971 0.02703807 0.09398857 0.1390138 -0.12362048 0.07667298 0.06351329 -0.12518783
0.015079171 0.012040198 -0.01230127 0.09247792 -0.07404899 -0.054808546 -0.005317373 0.128428
-0.07586125 0.02349333 0.1262009 0.0072544673 -0.13268502 -0.1117735 0.13832107 -0.12286547
-0.066011466 0.0825954 0.10650501 0.07388259 -0.10990833 0.051463127 -0.086118765 0.12129583

rnn.bias_ih_l0 f4 [48]
00000000: 147e 1f3d 0cd6 55bd 9407 6a3c a045 88bc
00000010: 5230 173e 7cfa 6eba bb06 6c3d f365 45bb
00000020: 635a c33d 3fcf afbb 4474 07bd e874 3ebd
00000030: 128e 5abd 52fc 313e fd4d 78bd 47f1 1f3d
00000040: e4a9 a7bd a4ad d1bd ea5e a13d 2a3c 043e
00000050: eddc 8b3d 5696 eb3d cc71 4b3e 4435 7c3d
00000060: 8536 f43c e31a ecbd 482f 553c d917 74bd
00000070: 069d 0b3d 6c01 1b3e 75e0 dfbd 5d19 f1bb
00000080: 26bc 1b3e 5cba 223e ed7b e33d de51 043d
00000090: 33c0 4abd b5a0 053e 13c9 40bd 2a86 4d3c
000000a0: d347 a43c bf02 d0bd fa8c 75bd 7d5b 5bbd
000000b0: 4f88 503e b8dd e0bc 508c 913d 7c14 463d
0.038938597 -0.052206084 0.014284033 -0.016634762 0.14764526 -0.00091163046 0.057623606 -0.003012058
0.09538724 -0.005365282 -0.033069864 -0.04649821 -0.053358145 0.17381409 -0.06062125 0.03904846
-0.08186701 -0.102381974 0.078794315 0.12913576 0.068292476 0.11503284 0.19867629 0.061574236
0.029811153 -0.11528566 0.013011761 -0.059593055 0.034085296 0.15137261 -0.10931484 -0.00735776
0.15208492 0.15891403 0.11107621 0.032304637 -0.0494997 0.13049586 -0.04706676 0.012544194
0.02005378 -0.10156774 -0.0599489 -0.053554047 0.20364498 -0.027449474 0.071068406 0.04835938

rnn.bias_hh_l0 f4 [48]
00000000: 3ed7 a23d a7d7 c6bd 256a 843c 5cc4 553e
00000010: a84a 453e 808f 9dbd c7f0 b13c e64a 51bd
00000020: 01be d3bb e6f0 183e 04a1 3f3d 06af 3b3e
00000030: 6e79 393d 2e3c 283c b3f7 bfbd 0aa5 f03d
00000040: e510 5f3d 6c92 e63d 298f ecbb 0a4f c33d
00000050: 2948 39bc 0608 da3d 4c2a 0f3d e268 5c3d
00000060: ed3d 8cbd 1b25 243e f15d 95bd 020c c93d
00000070: eb0b 113e ad40 d83d 01dc 1abe 2ca2 f93d
00000080: fe49 87bd db63 253e 30ff 11bc a227 20bd
00000090: aa13 e43d 402f e23c c7b6 f43d a859 263d
000000a0: ca32 30bd e389 33bd 0522 383e a771 f43d
000000b0: a7a5 d63c e91b ab3d b590 8fbd 6a81 613d
0.079512104 -0.09709101 0.016163895 0.20875686 0.1926676 -0.07693386 0.021721257 -0.05109682
-0.006461859 0.14935645 0.046784416 0.18328485 0.04528182 0.010268254 -0.09373417 0.11750229
0.05445947 0.112583965 -0.0072192145 0.0953656 -0.011308708 0.106460616 0.034952447 0.05381096
-0.06847749 0.1602978 -0.072933085 0.098167434 0.14164703 0.10559211 -0.15122987 0.12189135
-0.0660591 0.16151373 -0.008910939 -0.039100297 0.11136563 0.027610421 0.119489245 0.040612847
-0.043017186 -0.04383267 0.17981727 0.1193574 0.026202036 0.08354933 -0.070100226 0.05505506

fc.0.weight f4 [24, 48]
00000000: 566a 82bd 66a9 8abd d550 75bc b6a1 08be
00000010: 6913 e13d 493d 0dbd cb72 ec3c f541 183d
00000020: 7402 d9bd 428c e23d b6c8 003c dbc9 6abd
00000030: b2c8 92bc 58c5 303d 8934 67bd 6270 a23d
00000040: 11e6 aebd 6fa2 1d3d c22a a6bd 89f3 3fbe
00000050: de7f 923a 686e d5bd 5292 d0bc e9d6 0c3e
00000060: 474d 133c dc7b 38bd 0a68 efbd 863f 1fbc
00000070: 388d 3abd 9e4e 62bd 05b2 b73c 692a 3b3d
00000080: f179 aebd cc2c ce3c 3a21 b2bd 3887 b3bd
00000090: 36de 13be 01a5 963d 0ea4 d6bd 1445 803c
000000a0: 5533 22bd 5e77 e5bd 3218 0b3e 062a 1abd
000000b0: f5e6 cfbc f974 283c c636 4dbc f51f 903c
000000c0: c789 3f3e 2ed8 873d 2492 673d d7fc 1abc
000000d0: 9b6e c13d fbf0 d33d d7b3 4f3e fabd 9f3c
000000e0: 61ea 8b3d 808a e23d 140c 9bbc 8de1 5e3d
000000f0: 2ac5 f93d c9c5 573d 0d67 113e 6e06 5d3e
00000100: ffc1 c93d 4ebf 973d a87b d73d fd08 2fbd
00000110: 1ab7 f03d 0675 95bd 3e3e 8ebc 2498 94bd
00000120: 5eec 103d 2741 3b3d 8ceb 333e ca62 203e
00000130: dc56 f9bc 40d7 673e dc20 ac3c 05ee 383c
00000140: b5fe 153d f60a 3f3e 2c68 f03c dece 27bd
00000150: a5b3 293e 3cef 183e 90a1 233e 2ac7 173e
00000160: 815e b23d 6b9d 5d3e c39c 16bd 2d83 ff3b
00000170: 6450 033e fb69 ad3d 84eb 71bd fa4f b53d
00000180: d51f 9abd 2b0d b23d 0fd3 4b3d f7e1 1fbc
00000190: 1dd1 543c ada7 023e 0831 e7bd c6e0 5cbd
000001a0: 9026 683c cef0 22be de18 0cbd 2e2d 1a3e
000001b0: 9a5e 8dbc 22f6 2239 da29 d6bd 6ffd afbd
000001c0: 1ba0 35bd f23b 6c3c ea51 2bbd 5fc0 ca3d
000001d0: e79a e4bd d0cb 803d f6ad edbd 8610 153d
000001e0: 8ca5 b5bd 47fc 403d eb95 ce3d 5b07 0f3d
000001f0: 72b5 ec3d d6ae e3bd fc0e aebd 1c34 c53d
00000200: bd70 9c3d cbc6 08be 95c6 4abd 1620 32be
00000210: 41c1 703d f58d f5bd cdb4 15be 7b9a 1b3c
00000220: ecd7 37be 9a92 ff3a 04c4 9cba 18e2 e8bd
00000230: ff0c 6bbd 097a b33d 1af6 0b3d a859 ffbd
00000240: 4e62 373e 7af3 853d a0b7 923d 3cf3 5c3e
00000250: d6a4 ce3d dfa0 2c3e 15b6 353e dc77 d03d
00000260: 6094 b5bc fcb3 da3d 5290 233e da46 c23d
00000270: 302f 1bbd 95f4 db3d a72c 143e df9a ce3d
00000280: 5354 a73d 959c 093e 33a9 623c 8b59 333d
00000290: a915 253d 23a6 e2bc 8cf6 26bd 0e70 9a3d
000002a0: 8e66 a33c 17c4 3c3e 0fb4 dc3d fbf3 7cbc
000002b0: 6c20 6cbd b9b0 2f3e 809b debc 17f4 bdbd
000002c0: bd63 95ba 0d3f c7bc 5fde 843d 95bf 9e3d
000002d0: bf4c cebc 6c7d 1a3e 667a dc3d 1c4d e53d
000002e0: 99cd 053e e8c3 073e b924 9f3d 6d09 1e3e
000002f0: afb6 9a3d 2049 0f3e 4c7f 893d 0f38 1b3e
00000300: ca7c b2bc 5bd3 583c 236a a23d 8397 c13d
00000310: e49b 76bd 57ae 4cbd 162f 06be 685f dc39
00000320: c1df 1c3d 8126 f63d 4371 d4bc ef4a c9bd
00000330: 452e bbbd 4750 04be ff84 22be adb9 473d
00000340: b01f 25bd 07e4 03bd f2e1 49bd 27a0 a93d
00000350: f226 d23a 4e89 d13d 7b43 4fbd 04a7 ebbc
00000360: d30d bb3c a5c1 cdbd 2ffe 9b3d eb68 a83d
00000370: 4aae 12be 7a29 a7bd b337 1b3e 9f5a abbc
00000380: acd8 0c3d 7993 843c 7567 f4bd 0607 d73c
00000390: 2736 bc3d 64e0 883d 5e00 febc bfa0 f3bd
000003a0: f382 b8bd 77cc f13c 600b 9b3d 021b abbd
000003b0: 339d ffbd 94c8 27be b0d5 04bd 22be 11bd
000003c0: a212 d0bb dd98 f1bd 680d ef3c 7a28 b93d
000003d0: 232b edbd f3d3 5a3d 9737 a23d ae0e a8bc
000003e0: 0c17 893d 9207 b93d 3c71 db3d d838 e2bd
000003f0: d730 923d 343b 613c 274a 94bd 4199 00be
-0.06367938 -0.067705914 -0.014972885 -0.13342938 0.1099003 -0.034482274 0.028863331 0.037172277
-0.10596171 0.11061908 0.007860353 -0.05732141 -0.017917965 0.04315695 -0.056446586 0.079315916
-0.085399754 0.038484987 -0.08113624 -0.18745245 0.0011177023 -0.10421449 -0.025460396 0.13753857
0.008990592 -0.045039997 -0.11689766 -0.009719735 -0.045544833 -0.055250756 0.022423754 0.045694742
-0.08519352 0.025167845 -0.08697744 -0.08766025 -0.14440235 0.07355691 -0.1048051 0.015657939
-0.039599735 -0.11204408 0.13583449 -0.037637733 -0.025378684 0.010281795 -0.012525266 0.017593363
0.18704902 0.0663303 0.056535855 -0.009459696 0.094449244 0.10348698 0.20283447 0.019499768
0.068318136 0.11061573 -0.018926658 0.05441432 0.12195809 0.052678857 0.14199467 0.21584484
0.09851455 0.07409535 0.105216324 -0.04273318 0.11753674 -0.07297711 -0.017363664 -0.07255581
0.035381667 0.04571643 0.17570323 0.15662685 -0.030436926 0.22640705 0.021011762 0.011287217
0.03661986 0.18656525 0.029346548 -0.04096877 0.16572435 0.1493501 0.159796 0.14822069
0.087094314 0.21642081 -0.036770593 0.00779762 0.12823635 0.0846748 -0.059062496 0.08853145
-0.07525603 0.08693918 0.049761828 -0.009758464 0.01298931 0.12759276 -0.11288649 -0.0539253
0.01416935 -0.15912172 -0.034203403 0.15056297 -0.017257024 0.00015541216 -0.10457201 -0.085932605
-0.04434214 0.014418589 -0.041826166 0.09899973 -0.11162358 0.06288874 -0.11605446 0.03639271
-0.08869466 0.04711559 0.10087188 0.034919124 0.115580454 -0.11117332 -0.08498952 0.0962908
0.076386906 -0.13357083 -0.04950579 -0.17395052 0.05877805 -0.11989967 -0.14619751 0.00949728
-0.17953461 0.0019498647 -0.0011960273 -0.11371249 -0.05738544 0.08763511 0.034170248 -0.124682724
0.17908594 0.0654058 0.0716393 0.21577162 0.10090034 0.16858242 0.1774524 0.10179111
-0.022165477 0.106788605 0.15973023 0.0948617 -0.0378868 0.1074001 0.14470159 0.10088133
0.081703804 0.13438638 0.013834286 0.043786567 0.04030386 -0.02766711 -0.04076247 0.07540904
0.019946363 0.18434177 0.10776531 -0.015439029 -0.057648107 0.17157258 -0.027173758 -0.09275072
-0.0011397522 -0.024322057 0.064877264 0.07751385 -0.02518308 0.15086907 0.10765533 0.11196348
0.1306671 0.13258326 0.07770676 0.15433283 0.075543754 0.13992739 0.06713733 0.15158103
-0.02178802 0.013233985 0.079304 0.09452727 -0.060207263 -0.04997095 -0.131039 0.00042032753
0.038299326 0.12019063 -0.025932914 -0.098287456 -0.091396846 -0.12921248 -0.15871046 0.04876106
-0.040313423 -0.032199886 -0.049287744 0.082825 0.0016033335 0.10231267 -0.050601464 -0.028766163
0.02283374 -0.100467004 0.07616841 0.082231365 -0.14324299 -0.08162208 0.15157966 -0.020917235
0.034386322 0.016183602 -0.11933795 0.026248466 0.09190016 0.06683424 -0.031006034 -0.11895894
-0.090093516 0.029516442 0.07570529 -0.08354761 -0.12481155 -0.16385108 -0.03243035 -0.035581715
-0.0063498775 -0.117967345 0.029181197 0.090409234 -0.11580493 0.053424787 0.07920759 -0.020514812
0.06693849 0.09034647 0.10714957 -0.11045998 0.07138222 0.013747025 -0.07240706 -0.12558462

fc.0.bias f4 [24]
00000000: a9fa 24be 30d4 1e3e 3ff5 c23c cc0c 0b3d
00000010: 023a 0cbe d451 edbd 66d5 8d3d 4af4 b2bb
00000020: 4476 173e 94f5 45bc ada9 763c f935 25be
00000030: 341b 823d 659e 0fbd 1ef6 6a3e 74f6 f5bd
00000040: b57f db3d ac31 1bbe beb2 abbc aa8f 5e3a
00000050: e6bd c03d fb19 0cbe 032d b9bc f980 da3b
-0.16111244 0.1551063 0.023798583 0.03394775 -0.13694003 -0.11587873 0.06925468 -0.0054612504
0.14791209 -0.012082476 0.015055102 -0.1613387 0.06352845 -0.035063166 0.22945449 -0.12009898
0.107177176 -0.15155667 -0.020959254 0.00084900355 0.0941122 -0.13681786 -0.022604471 0.006668207

fc.2.weight f4 [12, 24]
00000000: 9d0a d6bd 2358 45be 1a33 8a3d ba5c 96bd
00000010: c8f4 4e3e 7453 e83d 1f19 5bbd 4bbd 023e
00000020: d238 af3d 5f56 453e 6759 503e 1277 4b3e
00000030: 7673 02be af4e 05bb b9da 86bc f6ab ed3d
00000040: ffe8 0ebe db89 a9bd 0f02 1a3e 74b4 bdbd
00000050: a95a a03d 77af 7a3d 1b0c 2e3e a163 e93c
00000060: 8344 5fbd f55e f63c 193f aebd 6447 8c3e
00000070: 7f1a 85be 11d0 353c 1908 883e ac74 f33c
00000080: 4d2e 1e3e 0544 93be 564a 91be 3dc2 7b3d
00000090: 8fd7 ed3d ee14 bf3d 48fe e23d 0a71 79be
000000a0: 1c8a 2a3e f306 93be c878 e43c 8437 c93d
000000b0: 2a89 7d3e 9693 43be 5068 943e 5c1e 68be
000000c0: 8b26 d53d 1d74 81bd 489f 453e 9ea7 bb3d
000000d0: 9143 8b3d da4c 03be 407a 833c dc9a 0dbe
000000e0: 5f34 16be b107 f3bc efcc 043e 9346 533d
000000f0: 611d 683d fabe 46bd dd28 793a 513b 773d
00000100: 59ca 89bd 298c fe3d dfeb 333e 6f0f 60bd
00000110: 1f07 0a3e f46c 2f3e e006 c6bc 039c 3fbe
00000120: db27 11be bdc2 54bc ec4c cb3d 0d5c a0bd
00000130: 37f4 063d b23d 68bd 96a0 f2bd fb50 0bbe
00000140: 8a07 6bbc 4e40 0dbe b774 713d c0ad 66bd
00000150: 6e41 3f3e b099 0c3e 9e10 f2bd df25 efbc
00000160: 950d b23d a276 f0bd c81b 24be fe62 a03d
00000170: c00e b0bd df95 d93c 6265 c4bd 8ff0 e8bd
00000180: 99c1 f0bd 397a 1e3e 7bed babb 8058 4ebe
00000190: fb8f 1d3e 2ffe 103d ba4f 463d 3d58 4a3c
000001a0: 6e4d bc3d dc76 27bd e499 5b3e e0c6 123e
000001b0: 0b7d 1abe a687 49be df6a 2cbe 6182 81bd
000001c0: d08a 483d b801 e93d 4dcf 3c3e 6c7d 153d
000001d0: 3570 cf3c 3d88 6bbd 5645 10be 1fcd a4bc
000001e0: cec1 823d 286a 2abe 11f6 733e ac40 a1bd
000001f0: b589 063e cc22 14be e7b5 ddbd 0c76 95bd
00000200: 0b38 bc3d 2a49 543e 7624 0d3d 9cc5 c73d
00000210: e766 77bd 0c24 1e3e 15e3 0c3c e9b9 563e
00000220: d56a e93d 876d b0bd 6b6f c83d a641 50be
00000230: ea81 15bd f425 323e 1bd1 2d3e e08c ea3d
00000240: 731d 99be f817 423e b05d 9fbd e97f 963d
00000250: 087e 093d 2c3b ccbd 2d6a 2e3e 809b 9d3e
00000260: 9733 863e 2e1f 27be 7589 5fbd d2a1 1ebe
00000270: 0d56 a73d 92da 7d3e 56bd 863e f6ec e5bd
00000280: 01e0 e73d 93ce 9ebe 7cb3 4d3e 4e04 7c3e
00000290: 138c 8a3e fc7b 84be 16b7 d03d f6f0 1bbe
000002a0: 383d 233e b44c 61bc 6fa4 393e 1d84 a43c
000002b0: ed76 ccbd cc30 243e a2cb 1dbe 8025 d83d
000002c0: b37d 1ebe b6ad 8fbd 3381 adbd 4bc9 20bd
000002d0: e4e6 003e ca88 e63d 3505 2cbe ab42 1dbe
000002e0: 1148 a63d a418 5ebd 9acc c33d 7791 b2bd
000002f0: 58b0 db3d b167 c13d b8a3 41be 0bac ab3c
00000300: a1d9 cabd 44cd a23d 9dca b43d be19 6a3c
00000310: b356 263e 9d3d 143e b943 12be 71d8 8ebd
00000320: 670a efbd 2008 0a3e 4354 0e3d 37db 033e
00000330: 7500 19bd 593a febc cb51 5bbc 8c03 083c
00000340: d97e 10be 754a d33d 64ae 153e e82f 17be
00000350: 3202 323e 184a 1b3e 0789 a63d abd6 45bd
00000360: 40da 5b3e 6645 663d 7b95 adbc 7632 f8bd
00000370: 1067 b3bd 6294 be3d 17d7 4bbe 9a9a 343c
00000380: a5f3 083e c93d 683d ef97 803d 6c5f a23d
00000390: 4aa4 3bbd bde1 81bd 2cb6 973d 998c 013e
000003a0: e503 0ebe 02d4 203d 0007 503d 0a62 823d
000003b0: 9721 0f3e a136 f1bd 041d a7bd 0da8 a93d
000003c0: 9e4f d03c b082 a73d 450a 4cbe a687 493d
000003d0: 5c54 7abe b947 63be 17e9 423e 83ef e5bc
000003e0: 90e7 8b3d ca2b 8ebe 4544 073c 7e34 97be
000003f0: 6e00 12bd 26c0 a8bc 2f10 373e 5893 06be
-0.10451243 -0.19271903 0.06748028 -0.07341905 0.20210564 0.113440424 -0.053490754 0.12767522
0.085557595 0.19271229 0.20346604 0.1986964 -0.12739357 -0.0020341089 -0.016461717 0.116050646
-0.13956068 -0.08278247 0.15039848 -0.09262934 0.07829792 0.061202493 0.16996805 0.02848989
-0.054508697 0.030074576 -0.08508129 0.27398217 -0.25996777 0.01109697 0.26568678 0.02971872
0.1544735 -0.28762832 -0.28377026 0.061464537 0.1161338 0.09330164 0.110836565 -0.24359527
0.16654247 -0.2871624 0.027889624 0.09825042 0.24759355 -0.19099268 0.28985834 -0.22667831
0.10407742 -0.06320975 0.19299042 0.0916283 0.06799997 -0.12822285 0.016049504 -0.13828605
-0.14668415 -0.029666753 0.12968801 0.051580977 0.056668643 -0.048521973 0.00095046853 0.060359303
-0.06728048 0.12429077 0.17570446 -0.05470222 0.13479279 0.17131406 -0.0241732 -0.18711857
-0.1417536 -0.012985882 0.09926781 -0.07830057 0.032947745 -0.056699462 -0.118470356 -0.1360511
-0.014345059 -0.13794062 0.0589492 -0.056318045 0.18677303 0.13730502 -0.11819576 -0.029192863
0.08693997 -0.117413774 -0.16026223 0.07831381 -0.08596563 0.026560722 -0.0958965 -0.11374008
-0.11755676 0.15476312 -0.0057045794 -0.20150948 0.15386955 0.03539866 0.048415877 0.012350139
0.09194456 -0.040884838 0.21445423 0.14333677 -0.15086763 -0.19680652 -0.16837643 -0.06323696
0.048960507 0.11377281 0.18438454 0.036496565 0.02532206 -0.057502974 -0.1408895 -0.02011734
0.063846216 -0.16642058 0.23824336 -0.07873663 0.13138469 -0.14466399 -0.10825711 -0.07297906
0.09190377 0.20731035 0.0344586 0.09754488 -0.06040087 0.15443438 0.008599062 0.20969357
0.1139733 -0.08614641 0.09786876 -0.20337543 -0.03650085 0.1739729 0.16974299 0.11452651
-0.2990528 0.18954456 -0.07781541 0.07348616 0.03356746 -0.09972224 0.1703269 0.307827
0.26211235 -0.16320488 -0.05457445 -0.15491417 0.0817071 0.24790409 0.26316327 -0.11226837
0.11322022 -0.3101698 0.20087999 0.24611017 0.27059993 -0.25875843 0.10191171 -0.15228638
0.15941322 -0.013751198 0.18129133 0.020082528 -0.09983621 0.1603424 -0.15409711 0.105540276
-0.15477638 -0.070155546 -0.084719084 -0.039254468 0.12588078 0.11256559 -0.16798861 -0.15357463
0.08119214 -0.054222718 0.09560509 -0.087191515 0.10726994 0.09443606 -0.1891011 0.02095606
-0.09904791 0.079493076 0.08827708 0.014288364 0.1624401 0.14476629 -0.14283647 -0.06974877
-0.11671906 0.13479662 0.034748327 0.12876593 -0.03735395 -0.031033682 -0.0133862 0.008301627
-0.14110889 0.10316936 0.14617306 -0.14764369 0.1738365 0.15164983 0.08131605 -0.048300426
0.21469975 0.056218527 -0.021189442 -0.12119 -0.08759892 0.093056455 -0.19906269 0.011023188
0.13374193 0.056699548 0.06278979 0.079283565 -0.045810975 -0.06341884 0.074077934 0.1265129
-0.13868673 0.039264686 0.050787926 0.06366356 0.13977657 -0.11777998 -0.08159831 0.08284006
0.02542859 0.081792235 -0.19925793 0.04920163 -0.24446243 -0.22195329 0.19034229 -0.02806831
0.068312764 -0.27767783 0.008256023 -0.29532236 -0.03564494 -0.020599436 0.17877267 -0.13142145

fc.2.bias f4 [12]
00000000: edc0 3dbe 0f46 483e e5a8 1bbe 85e7 72bc
00000010: d2e7 f7bd 13fd 06be d927 813e bc5f a5bd
00000020: cf0c ea3d 9409 dcbd 8634 21bd c503 ae3d
-0.18530627 0.19557975 -0.15201147 -0.014825706 -0.12104763 -0.13182478 0.25225714 -0.080749005
0.11428224 -0.107440144 -0.03935673 0.08496813

fc.4.weight f4 [6, 12]
00000000: 4cc7 fa3d 9cc4 26be bdb1 b43e c59b b0bc
00000010: b83e 283d b2d3 003e 8861 913d d8fb 173e
00000020: ef38 41be 3817 bbbc 9b43 d5bd 7f66 823e
00000030: 3961 1cbe cd4f 063e 407a 86be 6d2f 8cbe
00000040: 1e76 8ebc b43f 82be 29f9 973e 3731 42be
00000050: ce94 abbe 3bf4 abbe 39b6 5c3e e120 b8be
00000060: 3275 bdbe 6136 afbc 0861 24be 3144 71be
00000070: 3a89 87bc 227a 433d 31ed 993c f29a 20bd
00000080: 1106 babe 1280 283e 5e59 a03e 8be2 38be
00000090: 93db 8ebe 57f2 313e 11e0 22bd 74ad 293e
000000a0: f5dd aabe 698a 273e d5b3 1e3e 0808 62be
000000b0: 86c7 293d 7b6f dcbd 1b87 4fbe 3c58 0e3e
000000c0: dad9 523e 1f18 61be 9b95 57be 6726 f43d
000000d0: c0b2 a63d 2287 d1bd ba41 e7ba f54b 633e
000000e0: b368 313e 10c3 a73d 3750 093e 70b6 323b
000000f0: d3e7 443e e4fb e9bc 3ea9 c63d 350a 5f3c
00000100: d780 823e 0074 1dbd 178b 3abe d84c 203d
00000110: f534 9d3e 522f 32be b432 293e aabb abbd
0.12245044 -0.16285938 0.35291854 -0.021558652 0.04107544 0.12580755 0.07098681 0.14842165
-0.18869375 -0.02283822 -0.10413285 0.25468823 -0.15271463 0.13116379 -0.26265144 -0.27379933
-0.017390307 -0.25439227 0.29682282 -0.18964086 -0.33511966 -0.3358477 0.21553887 -0.35962585
-0.37003475 -0.021388235 -0.1605264 -0.23561169 -0.016544927 0.047723897 0.01878986 -0.039210267
-0.36332753 0.16455105 0.31318182 -0.1805517 -0.27901897 0.17377602 -0.039764468 0.16570073
-0.33372465 0.16361393 0.15498288 -0.22073376 0.041450046 -0.10763451 -0.20266382 0.13900846
0.20590916 -0.21981858 -0.21053164 0.11921387 0.081395626 -0.10230853 -0.0017643489 0.22196944
0.17325096 0.08191502 0.13409506 0.0027269386 0.19229059 -0.028562494 0.09700249 0.013613273
0.25488922 -0.038440704 -0.18217121 0.039135784 0.30704466 -0.17400864 0.16523248 -0.083854035

fc.4.bias f4 [6]
00000000: ae28 093e a315 273e 955c 083d fad3 903e
00000010: 4b85 5bbd 2825 183e
0.13394424 0.16316848 0.033291418 0.28286725 -0.053593915 0.14857924

fc.6.weight f4 [1, 6]
00000000: 4cda 1bbe 2810 0b3f e030 cd3d 6df1 533e
00000010: ec1b 64be 1ee0 8bbd
-0.15219992 0.5432153 0.10019088 0.20697565 -0.22276276 -0.06829856
